part2-twodigit/mnist_model_fully_connected.pt (torch, 671287 bytes, 6 tensors)

weight f4 [32, 1, 3, 3]
00000000: 3c0c f53e b054 37be 91e2 d9be f4af 573e
00000010: 18f3 e83e f7e7 0ebf 2c25 dcbe dc36 e93e
00000020: 3919 203f efcf 67c0 2f2e 9ebe f76b 8e3e
00000030: 241f 3fbf 7e68 25be 8e91 613e faa2 33bf
00000040: ff6d 343e 7053 c93e d671 bd3e dc69 adbd
00000050: 9813 31bf a6ca 56be 9c74 2dbf 252f 83bc
00000060: 4d78 f7be 83df ac3e 4a9e 3e3e 785c 94be
00000070: 2ac6 08bf eccd aebe d396 df3c 9803 b13c
00000080: fc51 40be ba51 3fbe 0517 62bd ea9c 533e
00000090: 032a f3bd 88ab fbbb 972c 38be 23e7 1cbf
000000a0: 9f2f cebe 03d4 40bf 2766 383e 3a39 ed3d
000000b0: 34f3 b2bd 94f8 16bf 2990 01bf dea1 743d
000000c0: 9cc3 70bd 0203 703d 4cb7 69bf f1e6 1e3e
000000d0: 8581 663e cb73 d93d 6422 a5bf 7397 14bf
000000e0: bed1 8cbf b6cc e1be 322b 013f 0378 13be
000000f0: 737c 953c 8e18 943e 1312 df3d 7fec c43e
00000100: 7190 23bf 03a4 943e 6737 2b3e f160 18bf
00000110: c42d c33c 95e8 683e f3df 3dbf de7a d13c
00000120: 4188 043e bc99 293e a317 91bf 8b7d c73e
00000130: 0dbe 3dbe 9a59 bbbf 6bde 4ebe fe59 2ebf
00000140: db3a 2ebf f176 e5be 2144 20bf 7a20 cbbc
00000150: 7059 563e 8375 9bbe 8452 aebf 03d0 e23e
00000160: 1c38 bdbe 13eb 4bbf 8dbf 823d 6b3f 1c3e
00000170: 9616 b6be c7e5 43be 3dd2 e1be 5136 f93c
00000180: ada8 51bf d0b0 843d d9a4 25be c812 de3c
00000190: c2d9 07bf 32d3 b6be 2b23 06bf ad63 1b3c
000001a0: 2051 04bf ea04 ecbe 7c92 183d b1a6 f0bd
000001b0: d25f 43bf df2f dcbe 86e8 b4bc 22ac c3be
000001c0: d602 05bd 9d55 65bf f7bd 013f 9800 2c3e
000001d0: 48b6 cebe f9d6 53bd 68e2 08bf 933a 48bf
000001e0: aeb7 16bf 9a2e d1bd 784b ddbe 4968 a7bd
000001f0: e227 adbe 51f4 2cbd 3b91 69bf ba7f dbbe
00000200: f573 b7be 747d 803f 9633 3a3f e051 0abf
00000210: e772 5cbf fba5 1fbf dbd2 45bf 5d54 bbbf
00000220: f072 4ebf 83ae 7dbf 1e04 ddbf 5409 bb3f
00000230: 4f6f 383f 7ef2 9dbf ee2e fbbe 02c4 f6be
00000240: 9269 bfbb 40d5 7c3d a6a3 5b3e d1e0 6cbf
00000250: 7c72 183e dc6e aa3d 6d2c 96bc c2ba e5be
00000260: 8c99 8bbf c622 e6be f848 8f3c 0779 cdbd
00000270: 4462 f6be 598e c9bd 0ac6 2cbf f799 69be
00000280: fefd dfbd 5cb5 63bf ab61 503e 00ec d1bc
00000290: a9ce 953e e681 33bd 95c9 bb3e 3a6e 07be
000002a0: 0456 7abf 62ce 803d b48c 21bf 8604 363d
000002b0: 6d8f c73e e491 b13b 83ad 22bf e3a6 063f
000002c0: 11dd 85bf a62a 67c0 0acb 3fc0 9d19 67c0
000002d0: 700a 693e 0d9a 7d3e 5388 2ebf 159a e33d
000002e0: 9dc8 a53e 8712 6bbf f33c a1bf e337 6abf
000002f0: 029a 8a3d e587 6a3e 3a28 a23e 9e33 d5be
00000300: 0a55 953e 841f 6ebe 8e78 06bf e092 da3e
00000310: 934d 6bbe ffed e2bc 4104 acbd 74e6 0abe
00000320: 9bcc 77be caa1 9dbe faa3 b23d d6d8 9abe
00000330: 3791 62be 4741 5abc 933e c7bd 96d7 98be
00000340: c401 df3d d3a7 aebe dd12 babe 8774 7dbd
00000350: 5c2b c6bd 2d31 e7be 68b4 0bbb 2bc8 87be
00000360: aa15 46bf b5ec 873e b344 d43e 9951 96bf
00000370: c773 6dbe 5ec2 453e d3ca c5bd e88f 09bf
00000380: ced7 e13e 99be 62be 988e a33c e797 87be
00000390: bd81 233e b156 263e accf 1bbe fd0b b5bd
000003a0: 8ca4 b9bd d8b5 96bd cc34 bbbf 72b1 e9be
000003b0: 48c8 25bf 2d48 71bf 60e3 ec3e 837b 853d
000003c0: 3eb8 38bf 2e71 cebe 6fc5 d23e f474 be3d
000003d0: a9ee 1cbe 5c31 eebe c57c 26be 1d52 5b3e
000003e0: 3a89 ebbe 59c9 b7be dd23 fabb ae2c 18bf
000003f0: 6268 2c3f 602f 1ebf d1f8 d23c 104c 76bf
0.47860897 -0.179034 -0.4255567 0.21063215 0.45497966 -0.558227 -0.4299711 0.45549667
0.62538487 -3.6220663 -0.3089461 0.27816746 -0.7465689 -0.16153142 0.22028181 -0.7017056
0.17620085 0.3932147 0.37000912 -0.08467457 -0.6917052 -0.20975742 -0.67756057 -0.016013691
-0.4833397 0.33764276 0.1861507 -0.28976798 -0.53427374 -0.3414148 0.027293598 0.021608159
-0.18781275 -0.1868352 -0.055197734 0.20665327 -0.118732475 -0.00768036 -0.1798576 -0.61290187
-0.40270707 -0.75323504 0.18007718 0.11583181 -0.087377936 -0.5897305 -0.50610596 0.05972468
-0.058780298 0.05859662 -0.91295314 0.15517785 0.22510345 0.10617789 -1.290112 -0.58043593
-1.1001508 -0.44101495 0.50456536 -0.1440125 0.018247819 0.28924984 0.10892119 0.38461682
-0.63892275 0.2903138 0.16720353 -0.5952292 0.023825534 0.22744973 -0.74169844 0.025571283
0.12942602 0.16562551 -1.1335338 0.3896297 -0.1852953 -1.4636719 -0.20202033 -0.6810607
-0.68058556 -0.44817308 -0.62603956 -0.02479576 0.20932555 -0.30363092 -1.3618932 0.44299325
-0.3695687 -0.7965557 0.06384192 0.15258567 -0.35564107 -0.19130622 -0.44105712 0.030421408
-0.81898004 0.06479037 -0.16176166 0.027108565 -0.5306665 -0.35708004 -0.5239741 0.009484214
-0.51686287 -0.460975 0.037249073 -0.11750544 -0.76318085 -0.43005273 -0.022083532 -0.38217264
-0.032473408 -0.8958376 0.5068049 0.16797101 -0.40373445 -0.051718686 -0.5347047 -0.7821438
-0.5887402 -0.10213967 -0.4322164 -0.08174188 -0.3381949 -0.042225186 -0.9123723 -0.42870885
-0.35830656 1.0038285 0.72734964 -0.5403118 -0.8611283 -0.6236264 -0.77274865 -1.4635121
-0.8064413 -0.9909441 -1.7266881 1.4612222 0.72044843 -1.2339628 -0.49059242 -0.48196417
-0.0058414424 0.06172681 0.21449146 -0.9253054 0.14887422 0.08321926 -0.01833173 -0.44869047
-1.0906234 -0.44948405 0.017490849 -0.1003285 -0.48121846 -0.09841604 -0.67489684 -0.22812639
-0.10937117 -0.8894861 0.20349757 -0.025625229 0.29259232 -0.043825053 0.36677232 -0.13225642
-0.977875 0.062893644 -0.6310532 0.044437908 0.38976613 0.005419003 -0.6354601 0.525984
-1.0458089 -3.611978 -2.9967675 -3.6109383 0.22757888 0.24765797 -0.68176764 0.11113373
0.32379618 -0.91825145 -1.2596725 -0.91491526 0.06767656 0.22903402 0.31671315 -0.41640943
0.29166442 -0.2325421 -0.525277 0.42690182 -0.22978811 -0.027701376 -0.08399249 -0.13564473
-0.24199145 -0.30787498 0.08722682 -0.30243558 -0.22125708 -0.013321227 -0.09728732 -0.2985198
0.10889009 -0.34112415 -0.36342517 -0.061878707 -0.09676239 -0.45154706 -0.0021317247 -0.26519904
-0.77376807 0.2654778 0.41458663 -1.1743652 -0.23188697 0.19312426 -0.09657826 -0.5373521
0.44109958 -0.2214302 0.019965455 -0.2648308 0.1596746 0.16244008 -0.1521594 -0.08840177
-0.09064588 -0.07358903 -1.4625487 -0.45643193 -0.6475873 -0.94250757 0.46267223 0.065176986
-0.7215613 -0.40320724 0.41166255 0.09299651 -0.15325417 -0.46522033 -0.16258533 0.21418042
-0.46003133 -0.35895804 -0.00763367 -0.59443176 0.67346776 -0.6179104 0.02575341 -0.9620981

bias f4 [32]
00000000: e31d 76bf 1d7e 0dbf 83ad d4bc bf57 9cbe
00000010: 131d bbbe c5e3 17be 21cb 03be a3f3 88be
00000020: da04 83be 8008 75bd a5ed 30bf a89f 53bd
00000030: 5793 11be c2db aebe db09 d1bd b487 87bd
00000040: cf90 52bd 5d5d 4abf 80e4 92be 69ac 6bbd
00000050: a4be 39bd 80d6 30bf 8fb0 49be 29da 56be
00000060: fd84 0ebf cc30 bbbe 34b1 ffbc 87b1 adbe
00000070: 8589 63bf f796 6fbe ba46 73be 4346 a9bd
-0.96139354 -0.5527056 -0.025961643 -0.30535695 -0.3654562 -0.14832981 -0.12870456 -0.2674838
-0.2558964 -0.05982256 -0.69112617 -0.051665932 -0.14216362 -0.34152037 -0.10206958 -0.0661768
-0.05140763 -0.7904871 -0.28689957 -0.05753747 -0.045347825 -0.690773 -0.19696258 -0.20981659
-0.55671674 -0.36560667 -0.031212427 -0.33924505 -0.88881713 -0.23397432 -0.23757449 -0.082653545

weight f4 [10, 8320]
00000000: 4012 95bb 5f05 283c f7fa 7bbf 4c82 583f
00000010: 2b2c 80bf cfbb 33c0 0121 27c0 c753 e03f
00000020: 7087 513f 8ee5 b2be 34ee 97bf af88 9ebe
00000030: a92b 1bbc e031 cc3a 858b 15be 5684 9b3f
00000040: e1bd ce3f 7ae8 ba3f fbd6 81bf 2a9a 23be
00000050: 42d1 103f 920c e33d 6dbf c43f 695b e3bf
00000060: 2635 febd cb16 923c e814 d9ba ce5e 69bf
00000070: e26a c63e 2f9a 9cbf 8d46 673f dded 0c40
00000080: 1811 903f 02ab 943f 850a 373f 7e9e dd3f
00000090: 2c23 993f fa6f 653f edcb 52bf 8277 cbbe
000000a0: f196 2bbf f54a 163f 724d edbd 9d4a 59bf
000000b0: 038b b2bf a3aa 333f 351e 1c3f b60c 013f
000000c0: ba30 313f b17d ad3f b77b 303f aa10 c73e
000000d0: 215b 1abf 3340 18bf 1d8c a0bf e4ea 08c0
000000e0: ee48 3fc0 67e5 8cbf 2431 00bf 3119 79be
000000f0: e3fe 8c3f d4e9 db3e 023c 923f 4e9a 753f
00000100: 17d9 40be 17ef b4be 65cd eebf 5e6c c73e
00000110: b07f 40c0 9489 bcbf b28f e6bf 3781 56bf
00000120: 74f6 523d a552 e2be 45a6 2e3e b65c ab3f
00000130: 0436 d23f 6073 db3e 38ae a7bd 2977 10be
00000140: ee57 573f fad1 0a3d 5dd8 a23e afd9 edbf
00000150: e965 38bf 2155 cbbf b0c9 11c0 2151 61bf
00000160: 02d2 7b3f eff4 513f 5635 233e 87ab 36bd
00000170: 964c 4b3e f1b3 143f 6ecb b6be eb28 e6be
00000180: 5e0b 29bf 74bb c7be 83dd 01c0 140e 0dc0
00000190: 199b 8cbf 5ce1 6dbe 6949 2240 b98e b9bd
000001a0: 2190 a1bd d1d4 a33f 18aa 1f3f 7e40 c13e
000001b0: 4dad 1cbf b2bb b63e 8aee 8cbf a731 7fbf
000001c0: 3a2d 9abe b743 b2bf f6ad ebbd 442a 0d3f
000001d0: 09ec f53d b1e9 923e eee7 803f 586a 713f
000001e0: 00f5 313d c064 873f bdc5 893f bb58 a9bc
000001f0: 2cae 20bf 2d76 70be 5cb7 cd3d d980 8e3f
00000200: e543 8bbf bb56 81bf c8eb 823d f70b 013f
00000210: 059c ec3f 2a77 b0bc 651c c13f 734a 903f
00000220: 9adf 21bf 8191 80be f064 61be 5ba8 e2be
00000230: f911 eebe 215c d63f 504a d4bf ba46 e13e
00000240: 1522 09c0 5ce0 5a3f 306d fe3e a176 32bd
00000250: e32d e53e 332a aa3e a1ba ebbc 6d16 9cbe
00000260: 092e 8ebf 2e24 eb3e fee1 9d3f 1896 cb3f
00000270: cee3 c3bd e298 8ebe f633 0c3f 9b54 5a3e
00000280: 16d2 16bf 23e1 c93e 846d 323e 65b8 0cbe
00000290: 58ea 4fbe e6fc dcbd 3791 cbbd 523c f93f
000002a0: ff2b 883f 633e 593f eda2 07be 21f6 dabe
000002b0: 057c ad3d d4a4 35bf 2b56 e43e 28cf 633f
000002c0: 5d2b 20bf a363 fdbe cab5 973a e96c af3e
000002d0: 3eb6 3bbe c635 803f 2163 82be a93d b0be
000002e0: d664 95bf 3c96 0ebf db00 823e a556 44bf
000002f0: 6161 69be 41b4 c7bd fe24 563e f4dc 6cbf
00000300: 8c30 a6bd d1d0 cfbe acdd 9dbf 0bd9 38bf
00000310: dc6e c1be 3113 0a3d 9738 123f c141 7e3e
00000320: 4c5c 82be 99ff d23d e54b 46bf 1585 213e
00000330: 8341 203f 1188 05bf c518 7fbf 62ab 00bf
00000340: 67f2 f23e 3151 56be de8a 3f3d a3b3 a2be
00000350: fbf7 123e 8d90 9b3e 11cb 5cbd d1bf 23bf
00000360: cbcc f5be 97ec c5be fa59 333f f16f 1abf
00000370: 1f60 693f 725b db3d 44d7 33bf 4ec2 893f
00000380: c3c9 4d3c 386e e7be 5d82 983d 42fb 1bbf
00000390: f1a5 4e3e a847 893e 124b a5bf 2d48 483e
000003a0: 73b7 6cbf 9be2 03bf 13f9 903d c0e6 083d
000003b0: 88c6 a93f ed39 debe 52d2 0bbf b6e2 df3d
000003c0: 0af4 45be d2d6 93bf abc6 8fbf 2c06 98bd
000003d0: 6f50 1bc0 13e5 1740 de80 773e 69f6 92bb
000003e0: 2cb8 393b ebf1 a2bd b33c 82bf ab25 dfbf
000003f0: c6ad a93f 81e7 413f d769 8dbf 23f6 19c0
-0.0045492947 0.010255187 -0.98429817 0.8457382 -1.0013479 -2.808338 -2.6113894 1.7525567
0.81847286 -0.3494076 -1.1869569 -0.30963656 -0.009470859 0.0015578829 -0.14604004 1.2149761
1.6151696 1.4602196 -1.0143732 -0.15976778 0.565693 0.11086382 1.5370919 -1.7762271
-0.12412481 0.017833134 -0.0016562017 -0.91160285 0.3875342 -1.2234553 0.90342027 2.202018
1.1255217 1.1614687 0.71500427 1.7313993 1.1963859 0.8962399 -0.82342416 -0.39739615
-0.67027193 0.58708125 -0.11587037 -0.84879476 -1.3948673 0.70182246 0.6098359 0.5041002
0.69214976 1.3553983 0.68938774 0.388799 -0.602953 -0.5947296 -1.2542759 -2.1393366
-2.9888263 -1.1007508 -0.5007498 -0.24326016 1.1015285 0.42951834 1.1424563 0.95938575
-0.18832813 -0.3533866 -1.8656431 0.38949865 -3.0077934 -1.4729486 -1.8012602 -0.83790916
0.051504567 -0.44203678 0.17055614 1.3387668 1.6422734 0.42861462 -0.081875265 -0.14107956
0.84118545 0.033891656 0.31805697 -1.8582057 -0.720305 -1.5885354 -2.277935 -0.8801442
0.9836732 0.82014364 0.15938315 -0.044597175 0.19853434 0.5808707 -0.3570208 -0.44953093
-0.6603297 -0.39010203 -2.029145 -2.2039843 -1.0984832 -0.23230499 2.5357306 -0.09060425
-0.078888185 1.2799321 0.6236892 0.37744516 -0.61201936 0.35690075 -1.1010296 -0.9968514
-0.3011263 -1.3926915 -0.1150779 0.5514262 0.12007911 0.28693917 1.0070779 0.9430289
0.04344654 1.0577621 1.076347 -0.020672193 -0.62765765 -0.2348258 0.10044739 1.1133071
-1.0880095 -1.0104593 0.06392628 0.5040888 1.8485113 -0.021541197 1.508679 1.127272
-0.63231814 -0.2511101 -0.22011161 -0.4426907 -0.46498087 1.6746866 -1.6585178 0.43999273
-2.1427052 0.85498595 0.49692678 -0.043570165 0.4476157 0.3323532 -0.028775515 -0.3048586
-1.1107799 0.4592604 1.2334592 1.590518 -0.09564935 -0.27851015 0.54766786 0.21321337
-0.58914316 0.39429578 0.1742459 -0.13742216 -0.20304239 -0.10790424 -0.09939807 1.9471533
1.0638427 0.8486082 -0.13245745 -0.42765906 0.084709205 -0.7095463 0.4459699 0.8898797
-0.6256617 -0.4949008 0.0011574563 0.3426278 -0.18331239 1.001641 -0.25466254 -0.34422043
-1.1671398 -0.5569799 0.25391278 -0.7669471 -0.22791053 -0.097511776 0.20912549 -0.9252465
-0.08114728 -0.40589002 -1.2333274 -0.7220618 -0.37779891 0.03370971 0.571176 0.2482977
-0.25461042 0.10302658 -0.77459556 0.15773423 0.6259996 -0.52160746 -0.9964717 -0.5026151
0.47450563 -0.2092941 0.046763293 -0.31777677 0.1435241 0.3038372 -0.053904597 -0.63964564
-0.48007807 -0.38657066 0.7005917 -0.6032706 0.91162294 0.10710801 -0.70250344 1.0762422
0.012560311 -0.45201278 0.0744674 -0.60930264 0.20180489 0.26812482 -1.2913535 0.19558783
-0.9246742 -0.5151765 0.07078757 0.033423185 1.3263712 -0.4340357 -0.546178 0.109319136
-0.19331375 -1.1549933 -1.1232504 -0.07423052 -2.4267843 2.3733566 0.24170253 -0.004484941
0.0028338535 -0.079562984 -1.0174774 -1.743337 1.3256156 0.7574387 -1.1047925 -2.405648

bias f4 [10]
00000000: c78a 66bf 05f8 4e40 2e97 d03d 0554 ebbf
00000010: 00f1 81bd 3c03 50bf 7f3e 8ebd 2c05 01bd
00000020: 58c6 f4bf c394 8ebd
-0.9005551 3.233888 0.10185085 -1.8385016 -0.06344795 -0.81254935 -0.06945514 -0.031499073
-1.912303 -0.06961968

weight f4 [10, 8320]
00000000: c0df 6839 b63a 1ebc 27a5 2f3f 0d61 30bf
00000010: 435c 94bf 7039 e7be db06 dc3e d823 a43e
00000020: a83b 873d 45f9 373c b20b b83e b6e2 a1be
00000030: 4059 3639 0b35 1e3c 3c97 fcbe 8415 c33f
00000040: b6e0 9f3f af6d 813f 569f c93f c11c 0e3e
00000050: fb61 df3e 9a3b 0fbe b668 91bf c83c 783f
00000060: 500a 403f a383 08bc 38c9 4cbf 5407 233e
00000070: 2275 ff3d 2f33 c63f e59b 1e3f cb38 2e3f
00000080: 3bb1 0f3e 4973 e5bd e5ac 913e 1136 b73e
00000090: 7df8 1f3f 1a32 733f 6f72 08bf 4e28 3fbf
000000a0: 579a b8bf b1b6 bf3d 930b 5abf cee8 7abe
000000b0: c935 df3e c941 3fbf f2d1 d9be 2025 a4bd
000000c0: 838d 4dbe 4d61 68bf a866 4dbe 5165 bbbe
000000d0: e195 7a3f a5e4 c3bf 7d8e a1bb 7dfb 80bf
000000e0: 6eb0 08bf 7adb fd3d bd46 c53e dec3 683f
000000f0: 846f 4abe 1785 14bd 906f 09bd 5e46 9b3e
00000100: 7c5d b2bf 87a7 aa3f 7337 9d3f d16f 94bf
00000110: e2bd a13e fffa 8dbf 2abd ba3e 6bf5 253f
00000120: 968d c53f f0b8 0dbf ee87 fc3d 8287 9b3f
00000130: 0cff b73f d90c 633f 4473 09bc b67a a3bf
00000140: 92ee 00be a144 5dbe af84 b1be 3a38 f13e
00000150: cf9e 86be 1f3a de3e fb3c 83bd 5577 8ebe
00000160: 13a4 413e 4204 49bf f72e 52bd 9eb0 cabb
00000170: 32f3 0ebe 4415 803f fc55 a0bf bc15 63be
00000180: 5fe8 c2bf d5e4 f73d 0523 19bf 122f 76bf
00000190: 8762 f33a b93e d4be 50b8 7ebd 32f7 d1bd
000001a0: 8ccc ddbc f5f0 9a3f c41c c33e 0a34 57bf
000001b0: 976b 16be c730 c0bf 30f0 b0be be7b 333e
000001c0: 0d80 7d3e 8c8c 8e3e d0af af3e 8394 c0be
000001d0: 8bb5 b5bf 1cda 7c3f fd31 bd3d 39ab b83e
000001e0: 52a8 153e d301 a43e 3327 50bf 8b43 cdbd
000001f0: af4e 21bf 246f 9c3e 6bef 673e f556 993f
00000200: b239 bd3d 9da8 d0bf fed2 58bd db28 91bf
00000210: e921 b0be dd09 533e 5244 e33e 2115 6b3f
00000220: 1fb1 59bf 2cf1 a3be 2e62 053f 5548 df3e
00000230: bed2 fe3e e25a 2f3e 30f3 973c 9704 68bd
00000240: a890 d1be 12d6 f1bf 172c 023f bb85 aabf
00000250: f85b 0cc0 26c7 d5bf 1fb4 90bf 9dc8 253f
00000260: becd 8e3f dbcb b13f 1a40 ec3e 02aa 883f
00000270: 7ba2 9cbe 773a 5bbf 627c 9fbf 7f0c b0be
00000280: 0b6f 0cc0 5970 31c0 2504 e0bf f3ce 06c0
00000290: 1dcd 1dbf b5c7 113e 1d43 f83f e92c 3f40
000002a0: fb47 38bf c8e0 e43a d46c 26bf a2f9 4ebf
000002b0: 58b4 3c3f 3989 1abf fc3b f2bf 6bc9 46bf
000002c0: f384 67bf 293e 09c0 b007 b7bf c5d2 483f
000002d0: d509 1040 c330 103f 6036 55bd fbf6 b8bf
000002e0: 7a0e 3bbe cb8d b53f 219d 8abd f4ce 6d3f
000002f0: 2fee b4be 7a01 24c0 8373 84c0 f002 b6bf
00000300: 5011 063e 31b0 a63f 3caf 233f 46b4 8bbd
00000310: 4689 b2bf 746b 683e 9287 873f 4c59 f73e
00000320: 433f 6c3e 90a7 2abf 4a91 acc0 0531 abc0
00000330: 52dd 85c0 cb8e 1cc0 b5c8 02bf 9aa1 473f
00000340: f8a7 0fbc 16f1 d0bf be3a ac3e d5ea 8abe
00000350: 42d0 3e3f 4fd4 e33d 12b0 78bc 31dc 85c0
00000360: 9808 b3c0 4caa 81c0 6874 f2bf b1f5 81bf
00000370: 8709 a1be c6cf 8c3b d1a0 98bf d9e0 9e3f
00000380: 53a0 473e 53ad 463e a4cf b13d a659 613f
00000390: d94b 0ebf 376e 85c0 6279 2fc0 0699 96bf
000003a0: 9c3d b8bf 8c76 aabb 0670 e0bb 73d6 bdbe
000003b0: c7fb c73f 25d3 8c3f 94ef cf3f ade4 1c3f
000003c0: 23a0 0b3f 9a7f 2ebe adc9 f4bf ec1b 19c0
000003d0: 2523 0ac0 8ad0 23bf 76b2 f4bb 5827 ce3a
000003e0: a31c 183c 205c 573a 74bb 283f f5cf c3be
000003f0: 9fe9 81bd c2b1 3abf 2069 9fbe 681f 9abf
0.00022208598 -0.0096575525 0.6861138 -0.6889809 -1.1590656 -0.4516101 0.4297398 0.32058597
0.066031754 0.011228864 0.35946423 -0.3161828 0.00017390121 0.009656201 -0.49334133 1.5240941
1.2490451 1.0111598 1.575175 0.13878156 0.4362944 -0.1398758 -1.136008 0.96967745
0.75015736 -0.008332166 -0.79994535 0.15920764 0.12473513 1.548437 0.61956626 0.6805541
0.14032452 -0.112036295 0.2845222 0.35783437 0.6248854 0.94998324 -0.5329961 -0.74670875
-1.4422101 0.093610175 -0.8517391 -0.2450287 0.43595722 -0.74709755 -0.42542988 -0.080148935
-0.20073514 -0.9077347 -0.20058692 -0.36600736 0.9788495 -1.5304152 -0.004930316 -1.0076748
-0.5339421 0.123953775 0.38530532 0.9092387 -0.19769102 -0.036259737 -0.03355366 0.30327123
-1.3934779 1.3332375 1.2282547 -1.1596624 0.31590182 -1.1092223 0.36472446 0.64827603
1.5433834 -0.5536032 0.12330614 1.2150729 1.4374709 0.8869148 -0.008389298 -1.2771823
-0.12591007 -0.21608211 -0.34671542 0.4711321 -0.26293036 0.43403718 -0.064081155 -0.27825418
0.18910246 -0.7852212 -0.05131432 -0.006185605 -0.13959959 1.000649 -1.252624 -0.2217626
-1.5227164 0.12104193 -0.5981906 -0.96165574 0.0018568792 -0.41454104 -0.062187493 -0.10252227
-0.027075075 1.2104784 0.38107884 -0.8406378 -0.1468948 -1.5014886 -0.3455825 0.17527673
0.24755879 0.27841604 0.34313822 -0.37613305 -1.4196028 0.9877031 0.0923805 0.36068133
0.1461499 0.32032642 -0.81309813 -0.100226484 -0.63010687 0.30553544 0.22649924 1.1979662
0.0923952 -1.6301457 -0.052935593 -1.1340593 -0.3440087 0.20609231 0.44388062 0.91829115
-0.8503589 -0.32019937 0.52102935 0.43609872 0.4977016 0.17124513 0.018548578 -0.056645002
-0.40930676 -1.8893454 0.50848526 -1.3322061 -2.1931133 -1.67014 -1.1304969 0.64759237
1.1156538 1.3890337 0.46142656 1.0676882 -0.30592713 -0.85636085 -1.2459834 -0.34384534
-2.1942775 -2.7724822 -1.7501265 -2.1063812 -0.61641103 0.14236338 1.9395481 2.987116
-0.71984833 0.001746201 -0.6500981 -0.8084966 0.7371268 -0.60365635 -1.8924556 -0.7765109
-0.9043724 -2.144419 -1.4299221 0.7844661 2.2506 0.56324404 -0.05205381 -1.4450372
-0.18267241 1.4183897 -0.06768251 0.9289391 -0.3533797 -2.5625901 -4.1391006 -1.4219646
0.13092542 1.3022519 0.6393926 -0.06821494 -1.3948143 0.2269724 1.0588248 0.48310316
0.23071007 -0.6666193 -5.3927355 -5.349734 -4.1832666 -2.4462154 -0.51087505 0.7798096
-0.008768074 -1.6323574 0.33638567 -0.27132288 0.74536526 0.11124479 -0.015178697 -4.183129
-5.594799 -4.052038 -1.8941774 -1.0153104 -0.3145258 0.0042972295 -1.1924077 1.2412368
0.19494753 0.19402055 0.086821824 0.8802742 -0.55584484 -4.169704 -2.7417836 -1.1765449
-1.4393802 -0.00520212 -0.0068492917 -0.37077674 1.5623711 1.1001936 1.6244988 0.6128643
0.54541224 -0.17040864 -1.9124047 -2.3923292 -2.158395 -0.6399008 -0.0074675633 0.0015728278
0.009284171 0.0008215327 0.6591103 -0.38244596 -0.06343388 -0.72927487 -0.31134892 -1.2040834

bias f4 [10]
00000000: 446f a33e 8115 06bd 49b9 34bd 74f1 f1bc
00000010: 89d5 53be 55f5 3ebf 847b 87be 25ba e53e
00000020: 8f59 6bbd 541d 2b3e
0.31920826 -0.03273535 -0.044122014 -0.02953408 -0.20686926 -0.74593097 -0.26461422 0.4486858
-0.057458457 0.16710407
