part2-mnist/mnist_model_fully_connected.pt (torch, 410007 bytes, 4 tensors)

weight f4 [128, 784]
000000 72 dd f1 3c 30 23 d8 bb 85 59 0f bd 3c 59 28 3c
       0.029524539 -0.0065959916 -0.03499748 0.010275181
000010 4d 72 07 3d fe 56 fe 3c e0 16 10 bd d9 ab 03 3d
       0.03306799 0.03104734 -0.035178065 0.03214631
000020 b8 95 31 3c ff b2 06 bd 7f 70 0c 3d 50 a6 01 3b
       0.010838918 -0.032885548 0.034286972 0.0019782968
000030 d5 55 a0 3b 05 56 61 3c e3 8b 2f 3c ef da ae bc
       0.0048930445 0.013753419 0.010714504 -0.02134463
000040 80 86 a7 3c 78 f4 ce 3c 4e d1 96 bc 24 61 8d 3c
       0.020449877 0.025263056 -0.018410351 0.017258234
000050 b0 17 d0 bb 9e bc bd bc ae f5 60 bc c0 00 89 bb
       -0.00635048 -0.023161229 -0.01373045 -0.0041809976
000060 45 f0 a0 bc 2e 75 a4 3c de 4d ac 3c aa a7 8a bc
       -0.01964582 0.020075407 0.021033224 -0.016925652
000070 f0 9e b5 bc 00 a0 d5 36 e0 19 00 3c d0 42 af 3c
       -0.022170514 6.366521e-06 0.007818669 0.021394163
000080 a8 6c 99 bb 13 68 bb bc e3 2b ae b8 ad 08 de 3c
       -0.0046821423 -0.022876775 -8.305141e-05 0.027103746
000090 6e c9 67 3c 16 99 f8 3c 84 7d 3b 3b 9f 95 c2 bc
       0.014147146 0.030346435 0.0028608749 -0.023752986
0000a0 ea 5c d8 bb 6d 5a 04 bd cd ff ff 3c 0e 50 7a ba
       -0.006602873 -0.0323128 0.031249905 -0.0009548672
0000b0 e2 a5 69 3c 9c 58 e0 3b 79 db 98 bc 23 96 38 3b
       0.014260741 0.0068465006 -0.01865934 0.002816566
0000c0 1d fe 24 3c 96 c3 0e bd 82 1f c8 bc d1 fb 0e 3d
       0.010070351 -0.034854494 -0.024429087 0.03490812
0000d0 24 b1 91 3c 50 d0 8d 3c e0 23 6c bc 88 ab 09 bd
       0.017784663 0.017311245 -0.01441285 -0.03361085
0000e0 78 17 6e bc aa 64 b5 bc ae c8 5f bc 18 25 10 3d
       -0.014531963 -0.022142727 -0.013658686 0.035191625
0000f0 df d3 da 3c 89 9e ca 3c cb 8e f3 bc 77 67 5e 3c
       0.026712356 0.024733799 -0.029731175 0.013574473
000100 e3 72 ab bc c9 a0 02 bc a1 19 c3 3c 04 4c e6 bb
       -0.020928806 -0.0079729045 0.023815932 -0.0070281047
000110 20 e3 04 3d 5a dc 46 3c b4 5d 88 bc cb cc 58 bc
       0.032443166 0.012137497 -0.016646244 -0.01323242
000120 82 75 4d 3c f0 0f 73 bc 85 7b 2a bd cc 35 77 3b
       0.012540223 -0.014835343 -0.041621704 0.0037721274
000130 0f c6 4e 3c 2c 19 84 3c 1d fe be ba f7 96 b9 3b
       0.012620463 0.016125284 -0.0014571581 0.0056637484
000140 c8 fa 19 3c bb 3d c7 bc e8 9b f9 3b b2 c9 1b bc
       0.00939817 -0.024321428 0.0076174624 -0.009508537
000150 48 1f a5 3b a0 4a 13 3c ac 84 f4 bc 0a 7a 05 3d
       0.0050391294 0.00898996 -0.02984842 0.03258709
000160 b4 cd 00 3d b3 e8 00 bd d4 09 0f bc 37 53 6d 3c
       0.031446174 -0.03147192 -0.008730371 0.014485172
000170 3f d5 2f bc 61 b9 9a bb 7f 77 2d bd c9 50 02 3c
       -0.010731994 -0.004721806 -0.04235029 0.007953831
000180 e5 d6 7c bd e0 31 18 bc b1 52 82 bd 34 ba 40 bd
       -0.061728377 -0.009289235 -0.063634284 -0.047052577
000190 17 de ce bd cf 98 ad bd 69 7b c4 bd 07 b9 30 bc
       -0.10100954 -0.084764116 -0.09593851 -0.010786301
0001a0 a0 61 82 bd a7 34 3d bd 99 43 04 39 7c d4 03 bc
       -0.06366277 -0.04619279 0.00012613683 -0.008046266
0001b0 d4 5f 8a bb fb 89 9f bc c7 85 98 bc 53 77 dd bc
       -0.0042228494 -0.019474974 -0.018618478 -0.027034437
0001c0 86 0e 12 bd 52 b4 c4 bc 6e 49 9c 3c 38 91 e3 3b
       -0.035658382 -0.024011765 0.019077983 0.0069448017
0001d0 8a 6e a9 bc f8 dc d8 3c 81 61 8a 3a 92 1c 01 bd
       -0.020682592 0.026472554 0.0010557623 -0.031521387
0001e0 22 fe 22 bd aa 2c 86 bc 23 ac 84 bd 5d ea 91 bd
       -0.03979314 -0.01637872 -0.06478145 -0.071247794
0001f0 c9 20 fa bd ab 56 2f bd 1e b1 b0 bd 03 59 bb bd
       -0.122132845 -0.042807262 -0.086275324 -0.09147837
000200 a4 fc 25 bd e9 f5 b2 3b e7 c1 9d 3c 39 43 37 3c
       -0.04052414 0.0054614437 0.019257499 0.011185461
000210 88 9d 73 bc e3 2d bd bc 7d ec 08 bd 55 99 28 bd
       -0.014869101 -0.02309317 -0.033428658 -0.041161854
000220 3e 38 d0 bc 76 f9 9b bc c7 27 04 ba 99 89 02 3d
       -0.025417443 -0.01903985 -0.00050413277 0.031869505
000230 90 d5 22 3c 41 18 f0 bc 66 fc 59 3c a5 1a a8 bb
       0.009938613 -0.02930844 0.013304805 -0.0051301294
000240 04 ac c2 bc 0d 2a 99 3c 19 17 c3 bc 1f 73 4c bd
       -0.023763664 0.01869681 -0.023814725 -0.049914476
000250 43 09 81 3d 83 de 17 3d c9 24 ad bd 9e 1f 0d bd
       0.06300595 0.037077438 -0.08454282 -0.03445398
000260 7b 5b fb bc ca 56 d3 bc 66 54 a4 3b af e3 a1 3c
       -0.03068327 -0.02579822 0.005014944 0.019761888
000270 19 31 3a 3d aa 8c c8 bb 29 35 ee bc a6 e5 b1 bb
       0.04545698 -0.006120284 -0.029078083 -0.0054289876
000280 69 72 00 bc 5f 6c e8 bc 88 40 53 3d 44 9e a9 bb
       -0.0078397775 -0.028371988 0.051575214 -0.0051763374
000290 ac f0 aa 3c 74 77 92 bc 48 52 09 3d ee 8f bd bc
       0.020866714 -0.017879225 0.033525735 -0.02313992
0002a0 60 0b 0f bd f0 f4 ba bc da c2 af 3c cf 76 a2 3c
       -0.034922957 -0.022821873 0.021455217 0.019832043
0002b0 3b 31 86 3c a8 4d 8c 3c 55 15 d5 bc d3 f1 77 bc
       0.016380897 0.017126873 -0.026011148 -0.015133339
0002c0 49 5f 0e 3b 85 c7 35 bc 72 53 79 bc bd 44 32 3d
       0.0021724275 -0.011094932 -0.015217649 0.043522585
0002d0 6b ae c8 3d 7c bc 19 3d 56 76 bb bc 59 62 ea bc
       0.097988926 0.03753327 -0.022883575 -0.028611349
0002e0 4b c8 51 bd 28 2f 5d 3d da 07 2f 3b 58 0e 94 3c
       -0.051216405 0.05400005 0.002670756 0.018073246
0002f0 e2 63 82 bc be 86 c2 3d 2f df 38 3d 15 04 a0 3b
       -0.015916768 0.09498356 0.04513472 0.004883299
000300 45 36 d6 3c e9 1a 6d bc a5 95 6c bb 7c aa a9 bb
       0.026148925 -0.014471748 -0.0036099937 -0.005177794
000310 82 6f 96 3b d2 f3 88 bc 48 23 04 3c 59 d2 b2 3c
       0.0045909295 -0.016717825 0.008065052 0.021828817
000320 f8 82 d3 3c 9b 03 56 3c f5 a6 3c 3c 75 94 25 bc
       0.025819287 0.013062383 0.011514415 -0.010106196
000330 08 f5 7b 3c 56 60 69 3c 94 39 44 bd 6e 30 d0 bd
       0.015378244 0.01424416 -0.047906473 -0.10165487
000340 45 d5 9e 3b 73 d4 45 3c 29 ff 55 bd 54 bf 66 bd
       0.004847201 0.012074578 -0.052245293 -0.05633481
000350 b2 ad b7 3b ce 2d 60 bc ca e3 fd 3d 61 5d c4 3d
       0.005605423 -0.013682796 0.12396963 0.09588123
000360 77 49 99 3d 22 6d 1c 3e 9a 95 02 3e 64 4d 63 3d
       0.074847154 0.15276006 0.12752381 0.055493727
000370 b8 11 10 bd 6d 0a 73 3c a4 1f ea bc 8b 03 7d bc
       -0.035173148 0.014834029 -0.02857954 -0.015442739
000380 aa 0d 6f bc 7e 5f 26 bc a0 58 d9 3c 64 28 a9 3c
       -0.01459066 -0.010154603 0.026531518 0.020649143
000390 1e 96 e7 3d ac f6 c4 3d 70 81 58 3d 25 37 e6 3d
       0.113079295 0.096173614 0.052857816 0.11240987
0003a0 36 4a bc 3d c1 11 2d 3d 9e a2 04 3c 3c e0 96 b8
       0.09193842 0.04225326 0.008095412 -7.194324e-05
0003b0 c2 ee 24 3d d7 1d ac 3d 5f 06 10 3d 2f 24 91 3a
       0.04026676 0.08404129 0.035162326 0.0011073406
0003c0 e5 cf 08 bc f1 7b d4 3c 34 62 50 3d 5a 24 ec 3d
       -0.008350347 0.025938006 0.050874904 0.11530371
0003d0 cb 38 e6 3d 2c 36 c1 3c 36 fe c2 3d 76 2c c9 3d
       0.11241301 0.023585401 0.09521143 0.098229334
0003e0 0d 90 11 bd 17 39 26 bd 81 a4 e2 3b 65 0e 9f bc
       -0.03553777 -0.04058179 0.006916583 -0.019416044
0003f0 9b a4 29 bc e7 c5 43 bc 7a 52 98 3c 87 4e d0 3c
       -0.010354186 -0.011949039 0.018594015 0.02542807

bias f4 [128]
000000 90 97 c0 bd 87 8a 95 bc 16 c8 44 3d 3c 2b af 3c
       -0.09403908 -0.018254532 0.04804238 0.02138292
000010 1e be 81 3d 34 92 72 bc 5f 0b 22 3b fe 32 f5 bd
       0.0633509 -0.014805365 0.0024726016 -0.119726166
000020 c0 f7 f3 3d 97 76 34 3d c8 bd dd bd d5 86 86 3d
       0.11912489 0.04405841 -0.108272135 0.06568686
000030 cf e7 5f 3d 94 f1 9b 3d 5d 37 db bb 50 df 01 3e
       0.05466443 0.07614437 -0.0066899494 0.12682843
000040 fe 37 d6 3d c4 37 a3 3d a7 cf 46 bc ad 69 8b 3d
       0.104598984 0.07969621 -0.012134469 0.068072654
000050 06 07 d4 bc c3 fd 11 be 41 4f 9b bd 90 b5 e5 3d
       -0.025882255 -0.14256959 -0.07583476 0.11216271
000060 b7 9b 82 3d 41 fe 24 bc c1 3e 2f 3d d9 83 24 bd
       0.063773565 -0.0100703845 0.042784456 -0.040164802
000070 65 39 0f be 6c fb 84 bd da 4f b2 3d a8 f1 1b be
       -0.13986738 -0.064932674 0.08706637 -0.15228903
000080 ea 9c 24 3e cf d5 2a 3e ab ea e1 3c 51 ef f1 3d
       0.16075483 0.16683124 0.027577719 0.11813224
000090 f6 a6 bf 3c 83 a7 87 3d 82 6c f4 3c df 37 db bc
       0.023395043 0.06623747 0.029836897 -0.02676004
0000a0 3b 16 6c bd c3 17 9b 3c 12 da f4 bc be 57 ab bd
       -0.057638388 0.018932229 -0.02988914 -0.08366345
0000b0 04 ec a1 bc b7 33 e7 3c ba 0c 58 bd b9 bb 48 bc
       -0.019765861 0.028222902 -0.052746512 -0.012251788
0000c0 aa 0e 69 3d 8e 21 8a 3b 18 14 ab 3e 80 29 53 3e
       0.05689875 0.004215426 0.33413768 0.206213
0000d0 41 9c 1f bd 71 8c 46 bd 12 c2 d7 3c db 6d 3d 3d
       -0.038967375 -0.04847378 0.026337657 0.046247344
0000e0 1f fc 24 bc 7f c4 39 3c 7d fe e4 3d e2 3f f7 39
       -0.010069876 0.011338352 0.11181352 0.00047159108
0000f0 3b bd ba bd 74 d1 bb bd 9a 18 13 3d fe be e5 3c
       -0.09118124 -0.091708094 0.035912134 0.028045174
000100 88 7f 1f 3e 53 18 e6 3d 35 b3 e4 3d d8 40 67 3e
       0.15575993 0.11235108 0.111669935 0.2258333
000110 35 97 aa 3d a1 59 8e 3d 50 35 42 3e f4 50 18 be
       0.08329622 0.06950689 0.1896565 -0.14874631
000120 ea 46 2f 3e 96 7b 29 3e 66 a3 05 3e 19 dc 92 3c
       0.17116895 0.1655105 0.13050613 0.017927216
000130 a7 fd b2 3d f4 1b cf 3d 5f 05 86 3d 68 0f c1 3d
       0.087397866 0.101127535 0.06543993 0.09426767
000140 12 63 23 3d e2 f1 66 3e e3 31 df 3d 01 7c 57 3d
       0.039889403 0.22553208 0.10898187 0.052608494
000150 e1 5a 5c 3d e9 cb 40 bd b9 d9 f3 3d 70 0e e2 3c
       0.053797606 -0.047069464 0.11906762 0.027594775
000160 ca 9a 4f 3d 45 26 0b bd 74 b6 8d 3c a1 a4 9d 3d
       0.050684728 -0.033972044 0.017298914 0.07697416
000170 7a a1 84 bd dc 51 8c bd 65 55 af 3c 38 4d f3 3d
       -0.06476112 -0.06851551 0.021403024 0.11879963
000180 e9 89 6a 3b b3 e7 86 bd 2d 4b cd 3c e4 0a 2a be
       0.0035787767 -0.06587162 0.02506026 -0.16605717
000190 33 fa 87 3d 57 f5 4c 3d eb e3 e1 3d c4 0b 36 bb
       0.066395186 0.05003866 0.110298 -0.002777801
0001a0 e0 d6 fa 3d ef 8e 04 bd af b1 8f 3d d5 71 9e bc
       0.122480154 -0.032362875 0.07016312 -0.019341389
0001b0 35 61 27 3d 8d 21 7d 3b be 61 21 3e f7 c8 b9 bd
       0.04086419 0.0038624734 0.15759942 -0.09071534
0001c0 8a 42 1e 3e 7e 32 26 bd ee fc 48 3d 8a 55 3b 3c
       0.1545507 -0.040575497 0.049069338 0.011433968
0001d0 77 b1 51 bd 52 68 15 3e 28 61 87 3e 5e cb b6 3d
       -0.051194634 0.14590576 0.26441312 0.08925508
0001e0 9d f5 92 bc 6f d6 29 3d c0 1d 24 3e 32 e7 22 bd
       -0.017939383 0.041464265 0.16026974 -0.039771266
0001f0 ab 5d 78 3d b6 7a a5 3d 2d f6 50 3d 75 c2 36 3d
       0.060636204 0.08080046 0.05101602 0.044619042

weight f4 [10, 128]
000000 04 b8 0d bf 3c 8a 7d bd 6a 91 b2 3e 9c 2b c2 3d
       -0.5535891 -0.06189941 0.34876567 0.09480974
000010 5e 84 0c 3f 7d ff c5 3b 20 35 32 be a6 4c ac 3e
       0.54889476 0.0060424195 -0.17403078 0.33652228
000020 a6 09 93 bd 5c 53 09 be fa 55 d2 be fb f3 01 bf
       -0.07179575 -0.13410705 -0.4108122 -0.5076291
000030 09 9a fa 3e d3 33 c1 3c 19 42 94 3d 04 cb 59 be
       0.48945644 0.023584282 0.072391696 -0.2126885
000040 44 98 95 bd c9 2f 7f be 29 98 af bd 58 47 fc bd
       -0.07304433 -0.24920572 -0.08573944 -0.12318295
000050 ce 66 78 3e 3e 68 63 3e 73 17 3d be be 4b f7 3d
       0.24257967 0.22207734 -0.18465976 0.120749936
000060 3e 07 d1 be 33 d3 d3 be d6 d6 26 3d 93 2d 74 3c
       -0.40825838 -0.4137207 0.040732227 0.014903444
000070 f2 85 1e bf 3f 48 0e 3e 71 ee 14 3f 10 60 d3 3e
       -0.61923134 0.13894747 0.5817633 0.41284227
000080 77 40 f1 3e a4 e8 d9 3c 30 81 98 3e 7e 8f bb be
       0.47119495 0.02660019 0.29786062 -0.36632913
000090 a0 f4 65 3e 15 3d 85 3e 15 a1 cc 3d e5 1f 21 bd
       0.22456598 0.26023164 0.099916615 -0.039337058
0000a0 ae 6e e8 3c 69 61 cc bd fa 5c db be 5a be 85 be
       0.028373089 -0.09979517 -0.42844373 -0.2612179
0000b0 d0 69 11 bf b9 ed d5 3d f6 b1 31 3e 6c b8 9e 3e
       -0.5680208 0.104457326 0.17353043 0.31000078
0000c0 54 34 57 bd 94 6e d4 3e 2b 7f f7 bd 38 6d 53 be
       -0.05254014 0.41490614 -0.12084802 -0.20647132
0000d0 f4 63 e7 3e 32 4d cb 3e e5 a9 b2 3e 61 e4 33 3e
       0.45193446 0.39707333 0.34895244 0.17567588
0000e0 cd 68 0a 3e 0b 0e 66 3d c3 a6 b2 be b3 3c 40 bd
       0.13516541 0.056165736 -0.34892854 -0.046932887
0000f0 d3 75 8a 3e 1c 62 a6 be 0c fb e8 3c 77 3f f5 3d
       0.27043018 -0.32496727 0.028440021 0.119749956
000100 3a 16 5f 3d d4 60 49 3e 6e 5c 36 3e 82 b9 f0 be
       0.054464556 0.19665843 0.17808697 -0.4701653
000110 42 e2 6a 3e 7d de 55 be 90 ca 9b 3d b1 41 0c be
       0.22937873 -0.20885654 0.07606995 -0.13696934
000120 ba af 87 be 0c 5d 28 3f a6 a5 b9 bc 07 da 55 be
       -0.26501256 0.6576698 -0.022661995 -0.20883952
000130 38 b6 94 3e e9 14 cf 3c 3c 6f 85 be 55 aa 03 bf
       0.29045272 0.025278525 -0.26061428 -0.5143178
000140 c6 56 3a bf 1e b4 0e 3f c6 7a da be 31 16 a8 be
       -0.72788656 0.55743587 -0.42671794 -0.3282943
000150 0f 9f f2 bd b8 97 fa bd b9 5a a9 3e 00 3c 9e bd
       -0.11846744 -0.12235969 0.33077028 -0.07726288
000160 11 8d 61 be a9 60 df 3e 2a a6 8b 3e e2 16 c0 3e
       -0.22026469 0.43628433 0.2727521 0.37517458
000170 dc e0 be 3e bc 4b 7f be 80 a5 6d bd 23 e8 89 be
       0.3728093 -0.24931234 -0.05801916 -0.2693492
000180 cc 01 e6 3d 32 50 cd bd d5 a9 88 3d 22 d7 0d 3e
       0.112308115 -0.10025062 0.06673018 0.13851598
000190 d9 e9 7e bd 85 fa 93 be 10 8e c4 3d c2 14 28 bb
       -0.062234733 -0.2890207 0.09597409 -0.0025647138
0001a0 e0 cb b5 be 10 58 3e be f3 46 3c bd ff d5 f2 be
       -0.35507107 -0.1858828 -0.0459661 -0.4742889
0001b0 a1 3b cf be b9 cb 0f bf 83 e6 af be c5 0e 69 bd
       -0.4047518 -0.5617023 -0.34355554 -0.05689885
0001c0 20 5c a6 be aa 0b 9c 3d bd 02 be be f7 9d 0c bd
       -0.3249216 0.07619412 -0.37111464 -0.034330335
0001d0 75 91 99 be e5 98 61 be 8b f7 26 bd d9 10 ad be
       -0.29993787 -0.22030981 -0.04076342 -0.33801916
0001e0 ce c7 e2 bc 2d 7b d0 3b cc 01 f1 be 21 96 89 3d
       -0.027683165 0.00636234 -0.47071683 0.06718088
0001f0 36 62 56 be d1 1a 6b be 35 6e 79 3e aa 80 fc bc
       -0.20935902 -0.22959448 0.24358447 -0.03082307
000200 2c e4 c7 3e 63 20 cf be e6 89 9a 3e 74 9f af be
       0.3904127 -0.40454397 0.30183333 -0.3430134
000210 75 97 8f be 29 31 02 3f b7 7f 74 3d 48 df 58 be
       -0.2804524 0.5085626 0.05969211 -0.21178925
000220 19 19 85 3d a0 33 c4 be 14 96 90 3e 52 40 d1 3e
       0.064989276 -0.38320637 0.282395 0.40869385
000230 f6 93 d6 be 0a 16 0b be 32 85 25 3e f6 71 98 be
       -0.4190976 -0.13582626 0.16164091 -0.29774445
000240 17 0d d4 3e 8e 26 9d be d9 43 c4 3c 45 d9 15 3e
       0.41416237 -0.30693477 0.023958134 0.14633663
000250 df d3 84 be c9 83 6e 3e 44 41 6e 3e 62 d7 c0 bc
       -0.25942895 0.2329246 0.23267084 -0.023540203
000260 eb 9e 81 3e 6e 57 92 be 18 69 d4 bd 56 73 e7 3e
       0.25316557 -0.2858233 -0.103716075 0.45205182
000270 f6 33 94 3e bd 99 72 bd bd 7b ee be 2e 1b 0a bd
       0.28945893 -0.059228648 -0.4657878 -0.033717327
000280 0c 2e 91 be 16 b1 72 3f 76 44 22 bf c3 d1 7e 3e
       -0.28355443 0.9480146 -0.63385713 0.24884705
000290 49 1a c3 be e0 53 77 be 43 7e f6 be 30 9e 4c be
       -0.3810599 -0.2415309 -0.48143205 -0.19982219
0002a0 66 18 c2 3d 52 2e 4e 3f 2c 3d ad 3c b4 95 55 3e
       0.0947731 0.8053943 0.021147333 0.20857888
0002b0 8d fb fb 3e fd 7b 35 bd 69 ae 76 be 01 8a 39 be
       0.49215356 -0.044307698 -0.2408997 -0.1811905
0002c0 b9 0a 9f 3e 27 cf ad 3c 40 d3 12 3f 49 fd 77 be
       0.31062868 0.021216942 0.5735359 -0.24217714
0002d0 dd 52 93 be b1 48 96 3e b8 67 9a 3d 28 f7 45 3e
       -0.28774157 0.29352334 0.07539314 0.19332564
0002e0 3c 67 a9 bc 78 74 ed bb 3b 3c d0 be 2c 18 3a 3d
       -0.020679109 -0.00724655 -0.40670952 0.04543321
0002f0 79 84 62 be 11 bb 4a bd c7 8b 71 3d fb a0 8d bc
       -0.22120847 -0.049494807 0.058971193 -0.017288676
000300 45 31 9f 3e 46 6f a5 be 23 7b 92 3c be b2 0a bf
       0.31092277 -0.32311457 0.017880982 -0.5417899
000310 80 84 b2 be 85 39 79 3e 9f c2 0c be d8 6c 78 be
       -0.34866714 0.24338348 -0.13746117 -0.2426027
000320 7a b1 80 be b6 fb 95 be 8c ea 53 be 70 14 7f 3e
       -0.25135404 -0.29293603 -0.20694941 0.2491014
000330 c2 eb 9d bd c4 1e 17 be be 8e 03 bd e7 c1 a5 be
       -0.07710983 -0.1475783 -0.03211855 -0.32374498
000340 5f 01 17 3f 59 10 65 3e a6 19 cd 3d dd 07 97 3e
       0.5898647 0.22369517 0.10014658 0.29498187
000350 ec 00 84 bd 14 fe 77 bd 91 df c6 bd 30 18 85 3e
       -0.06445488 -0.060545042 -0.09710611 0.25995016
000360 b4 c8 39 3f 6a 1b f5 be 13 34 3e be 2e c6 12 be
       0.72571874 -0.47872478 -0.18574552 -0.14333412
000370 25 38 8e 3e fd 12 ab 3e ac 9b 5e bd a4 3a 62 3e
       0.2777721 0.33412924 -0.05434768 0.22092682
000380 36 06 de be fb 6b 00 bd 19 8a b4 bd 66 ed 0d bf
       -0.43364114 -0.03135298 -0.088154025 -0.55440366
000390 cb 79 bd 3d 7e 3d 2b 3e ca bb 90 bd e0 8d 49 3e
       0.09251746 0.16722676 -0.07067068 0.19683027
0003a0 35 db 6c 3e 1d c3 fd 3e 7b 4d 42 be 96 2f 32 3f
       0.23130496 0.49562922 -0.18974869 0.6960386
0003b0 30 66 cb be 07 32 43 be 63 22 89 3d c4 c8 1e be
       -0.397264 -0.19062053 0.06696012 -0.15506274
0003c0 6d f1 02 be 09 7c 93 be b4 f7 7e bc f4 78 13 bd
       -0.12787409 -0.2880557 -0.015561987 -0.03600402
0003d0 36 52 a3 bc cf c6 06 bf 84 ac 40 bd 20 0c d8 3e
       -0.019936662 -0.5264711 -0.047039524 0.4219675
0003e0 2b 62 b2 bd 7c b4 d5 be a3 2d f4 3e c8 71 31 3c
       -0.0871013 -0.4173926 0.47691068 0.01083035
0003f0 4c 11 f3 bc 5a 29 dc bd 43 e2 a7 be e7 46 cb 3c
       -0.029671334 -0.10750075 -0.32789811 0.024814082

bias f4 [10]
000000 f4 b8 96 be d6 6a 66 3e a5 81 c7 bd 4d 4d 24 be
       -0.29437983 0.22501692 -0.097415246 -0.16045113
000010 51 e4 1b 3e 32 83 87 3e a7 90 9b bd 73 8d 2c 3d
       0.15223815 0.26467282 -0.075959496 0.042127084
000020 c7 95 29 3e cb 99 3d bc
       0.16561042 -0.011572312
